Generator(
  (stem): Sequential(
    (0): Linear(in_features=80, out_features=512, bias=True)
    (1): SiLU(inplace=True)
    (2): Linear(in_features=512, out_features=3744, bias=True)
    (3): SiLU(inplace=True)
  )
  (layers): ModuleList(
    (0): NeRVBlock(
      (conv): CustomConv(
        (conv): Conv2d(26, 650, kernel_size=(3, 3), stride=(1, 1), padding=(1, 1))
        (up_scale): PixelShuffle(upscale_factor=5)
      )
      (norm): Identity()
      (act): SiLU(inplace=True)
    )
    (1): NeRVBlock(
      (conv): CustomConv(
        (conv): Conv2d(26, 384, kernel_size=(3, 3), stride=(1, 1), padding=(1, 1))
        (up_scale): PixelShuffle(upscale_factor=2)
      )
      (norm): Identity()
      (act): SiLU(inplace=True)
    )
    (2-4): 3 x NeRVBlock(
      (conv): CustomConv(
        (conv): Conv2d(96, 384, kernel_size=(3, 3), stride=(1, 1), padding=(1, 1))
        (up_scale): PixelShuffle(upscale_factor=2)
      )
      (norm): Identity()
      (act): SiLU(inplace=True)
    )
  )
  (head_layers): ModuleList(
    (0-3): 4 x None
    (4): Conv2d(96, 3, kernel_size=(1, 1), stride=(1, 1))
  )
)
Params: 3.201905M
Generator(
  (stem): Sequential(
    (0): Linear(in_features=80, out_features=512, bias=True)
    (1): SiLU(inplace=True)
    (2): Linear(in_features=512, out_features=3744, bias=True)
    (3): SiLU(inplace=True)
  )
  (layers): ModuleList(
    (0): NeRVBlock(
      (conv): CustomConv(
        (conv): Conv2d(26, 650, kernel_size=(3, 3), stride=(1, 1), padding=(1, 1))
        (up_scale): PixelShuffle(upscale_factor=5)
      )
      (norm): Identity()
      (act): SiLU(inplace=True)
    )
    (1): NeRVBlock(
      (conv): CustomConv(
        (conv): Conv2d(26, 384, kernel_size=(3, 3), stride=(1, 1), padding=(1, 1))
        (up_scale): PixelShuffle(upscale_factor=2)
      )
      (norm): Identity()
      (act): SiLU(inplace=True)
    )
    (2-4): 3 x NeRVBlock(
      (conv): CustomConv(
        (conv): Conv2d(96, 384, kernel_size=(3, 3), stride=(1, 1), padding=(1, 1))
        (up_scale): PixelShuffle(upscale_factor=2)
      )
      (norm): Identity()
      (act): SiLU(inplace=True)
    )
  )
  (head_layers): ModuleList(
    (0-3): 4 x None
    (4): Conv2d(96, 3, kernel_size=(1, 1), stride=(1, 1))
  )
)
Params: 3.201905M
[2024/04/08 09:45:50] Rank:None, Epoch[1/300], Step [1/250], lr:5.00e-05 PSNR: 9.67, MSSSIM: 0.5467
[2024/04/08 09:45:55] Rank:None, Epoch[1/300], Step [51/250], lr:5.15e-05 PSNR: 10.01, MSSSIM: 0.5258
[2024/04/08 09:46:00] Rank:None, Epoch[1/300], Step [101/250], lr:5.30e-05 PSNR: 11.79, MSSSIM: 0.5465
[2024/04/08 09:46:05] Rank:None, Epoch[1/300], Step [151/250], lr:5.45e-05 PSNR: 12.95, MSSSIM: 0.56
…
